networks/target_net2.pth (torch, 828656 bytes, 8 tensors)

conv.conv.0.weight f4 [128, 16, 2, 2]
00000000: d6f8 dfbe eef5 6f3f 85ad b9bf ca1b a4be
00000010: b9d0 2abf 046a babe 7b4d 0ac0 345d f3bf
00000020: a9a5 cbbf 6db1 53bf af08 2cc0 8d43 40c0
00000030: 32a0 b33f 0efa a73f cb54 02bf 85b9 12be
00000040: e3c0 aebd af16 a1be 874d d03e ff29 fc3e
00000050: 961f 30bd f25d d2be 4ac5 4a3e 109e 6ebd
00000060: 3c9b b13e 596a 243f dbd7 9bbe 7315 d13f
00000070: 2ff1 b23f 14ad 1f3e c812 4a3f cf8f 753f
00000080: 52f0 943d baa6 07c0 b2a4 c23f 8f11 4f3e
00000090: 180a 18c0 43d9 0fc0 dff4 a13f d864 a1bc
000000a0: e217 943f 0be6 3cbf 1fd3 543d 6ce4 b6bf
000000b0: 08aa 033d 46d3 873d c01b 383b 605b 0a3c
000000c0: d019 5c3c b08a 273c 20c7 21bc c024 c33b
000000d0: ccf4 06bd 7220 87bd 68e7 f33c 62a5 97bd
000000e0: a446 db3d c4e1 85bd 78a7 cdbd f82d ec3c
000000f0: 9a0a fabd 72ef b2bd 2833 bb3d d066 4a3d
00000100: 4c29 0cc0 8bd3 87bf 6469 1cc0 22e4 1bc0
00000110: dfcc a8bf 3447 63bf 2779 c1bf 43bd 46be
00000120: ac84 753f 70ff 90c0 56b4 2dbc 16de f73e
00000130: 9586 11c0 98de 383f a40d 0c40 e214 24c0
00000140: 18c7 94bf a394 c23f 8918 89be b907 87bf
00000150: ae10 14c0 c920 f73e 497f 0ec0 e23d 9dbf
00000160: 254f b03e 9e94 b3bf 5e58 0bc0 28f4 3a3f
00000170: 6edb 2e40 bf56 5ac0 5abb 14c0 927b 7f3d
00000180: a5c2 6ebe 347e 9dc0 b1cf 91bf 03de 0640
00000190: f21b 7240 362c ac3f dd7b 983f 8a87 2b3f
000001a0: 3407 13c0 11bb 1b40 10b5 bd3e 25af 323f
000001b0: 2090 b4bd 3283 d63d 60b6 0c3d e819 933c
000001c0: fe1d e8bd 84ed 743d 3c70 5bbd b0c3 6abd
000001d0: 16f1 87bd 08b2 0e3d 7097 913d 4e71 813d
000001e0: b4ed e0bd 2c49 d4bd 70b4 953c dc6f f1bd
000001f0: 187f bebd 0a04 923d e0ba abbd 6287 d33d
00000200: b0f9 f83e 2b12 3c3f efe8 d4bd 4be4 debf
00000210: 0453 8c3f 68d8 ad3e 539a 5fbf 1701 933f
00000220: cea5 843e 580a 5a3f b6d8 173f 0720 823f
00000230: d683 703f 8b31 1abe 95f8 093f 185d f9be
00000240: dcdc 783e f46d 993e ef65 fe3e 0a16 5c3f
00000250: ec38 6ac0 f016 6abf 106d 633d cf67 c0be
00000260: 6821 e6be a626 1bbf 8f99 1f40 d3f7 583e
00000270: 7687 2ebf aee3 f0bd b396 163f dbdb dbbf
00000280: 8b77 fe3c 6431 0d3e 6b92 e7bf 802d 1e3f
00000290: 517e 993e 9793 a43e 8a24 71c0 0e64 0b3d
000002a0: 468e d83e 0b8b 0cc0 55fe f8bf 6970 debf
000002b0: b4c0 a33d 0e5b d9bd 66e3 9ebd e0dc 8d3c
000002c0: c6f6 b5bd 94ed e1bd 86b9 e1bd bc8f 9bbd
000002d0: 60ee acbb b809 a1bc fc93 d53d 781a 9bbd
000002e0: d8ac c53c d0ca 423c e813 2e3d 001d 74bc
000002f0: ded6 f43d 2c51 debd 3e7c e6bd 7c46 b53d
00000300: c357 693f b8b8 93bf 3ee6 c4bf a678 d0bf
00000310: 82ae 193e 8765 85bf 6f4a 05c0 4c27 993e
00000320: bc09 b8be 533e 05bf 151b d2bf 3227 f63e
00000330: 15f8 9dbf 2720 a9bf da00 40c0 b842 983f
00000340: a2a2 f8bf 7a8c 1540 786d 4b3f 3ee4 a4be
00000350: 323d 3abd 498e 913f c293 8d3f 20f2 44bf
00000360: 51c0 0640 8bf1 a53f 3ae3 0640 c076 b3bf
00000370: eb77 cf3f 5db6 73c0 eafd cbbf 8538 eb3e
00000380: 6701 3fbd da4a 03c0 dde8 1d40 a6c1 f33f
00000390: feeb 81c0 3506 04c0 cf44 0d3f 033a e63e
000003a0: 6c73 d23f 10b4 0440 3b8f be3f 9da7 2540
000003b0: 1a31 cb3d ce6d eabd 0091 3abd c8bc f43d
000003c0: 90bd bc3d 20bf f63b 2474 2cbd b871 15bd
000003d0: 64b3 d53d f0ec 11bc 8cf7 95bd 803d 8b3b
000003e0: e813 143d 40cf ae3b 021b f1bd d055 153d
000003f0: 28c5 34bd 4c5b 453d 80ab c5bc 2a22 c03d
-0.43744534 0.93734634 -1.4506079 -0.3205245 -0.66724735 -0.36409009 -2.160979 -1.9012818
-1.590993 -0.82692605 -2.68803 -3.004123 1.4033263 1.3123186 -0.50910634 -0.14328583
-0.08532884 -0.3146262 0.4068415 0.4925079 -0.042998873 -0.410873 0.19801822 -0.05825621
0.34688747 0.64224774 -0.30438122 1.6334671 1.3979853 0.15593368 0.7893491 0.9592256
0.072724 -2.1195512 1.5206511 0.20221542 -2.375616 -2.2476356 1.2652854 -0.019701406
1.1569788 -0.7378852 0.051959153 -1.4288459 0.032144576 0.06632094 0.0028092712 0.008444637
0.013433889 0.010225937 -0.009874135 0.0059553087 -0.0329483 -0.06597985 0.029773429 -0.07404591
0.10706833 -0.06537202 -0.10041708 0.028830513 -0.12209053 -0.08737077 0.09140617 0.049414456
-2.1900206 -1.0611433 -2.4439325 -2.4357991 -1.3187522 -0.8878052 -1.5115098 -0.19408135
0.95905566 -4.5311813 -0.0106020775 0.48411626 -2.2738392 0.7221465 2.1883326 -2.5637746
-1.1623259 1.520161 -0.2677653 -1.0549232 -2.313518 0.482672 -2.2265189 -1.228451
0.34435382 -1.4029729 -2.1772685 0.730288 2.732143 -3.4115446 -2.323935 0.062373705
-0.23316438 -4.9216557 -1.1391507 2.1073005 3.7829556 1.3450992 1.19128 0.6700369
-2.2973146 2.4332926 0.37052202 0.697985 -0.08816552 0.10474242 0.034353614 0.017956689
-0.113338456 0.059796825 -0.053573832 -0.05731553 -0.0663778 0.034837753 0.071089625 0.06320439
-0.10982838 -0.10365519 0.018274516 -0.117889136 -0.09301585 0.07129677 -0.08385253 0.103285566
0.48627996 0.7346522 -0.10395991 -1.741342 1.0962834 0.33954167 -0.87344855 1.1484708
0.2590775 0.85172033 0.5931505 1.0166024 0.93951166 -0.15057962 0.5389493 -0.48703837
0.24303001 0.299667 0.49687144 0.8597113 -3.6597242 -0.9144125 0.055523932 -0.375792
-0.44947362 -0.6060585 2.4937475 0.21188287 -0.68175447 -0.117621765 0.588237 -1.717647
0.031062862 0.13788372 -1.8091558 0.6178818 0.29979184 0.32143852 -3.7678552 0.034030966
0.42296046 -2.1959865 -1.9452616 -1.7378055 0.079957396 -0.106130704 -0.077582166 0.017317235
-0.08884959 -0.110316426 -0.11021714 -0.075957745 -0.00527744 -0.019657955 0.104286164 -0.07573408
0.02413027 0.011889175 0.042499453 -0.014899492 0.11955045 -0.10855326 -0.11254166 0.088513345
0.9114954 -1.1540747 -1.5382764 -1.6286819 0.15007976 -1.0421609 -2.082668 0.29912794
-0.35944927 -0.52048224 -1.6414515 0.4807678 -1.2341334 -1.3212937 -3.000052 1.1895361
-1.9424632 2.336699 0.7946391 -0.32205385 -0.045468517 1.1371547 1.1060717 -0.76931953
2.105488 1.2964338 2.1076188 -1.4020615 1.6208471 -3.8080056 -1.5936863 0.45941558
-0.046632197 -2.0514436 2.4673378 1.9043472 -4.0600576 -2.0628788 0.5518312 0.44966134
1.6441474 2.0734901 1.488746 2.5883553 0.09921475 -0.11446725 -0.04554844 0.1195007
0.09215844 0.007530108 -0.042102948 -0.036485404 0.10434607 -0.008906588 -0.073226064 0.0042492747
0.036151797 0.0053347647 -0.117727295 0.03645879 -0.044133335 0.04818277 -0.02412963 0.09381516

conv.conv.0.bias f4 [128]
00000000: 514b 30be 5a90 323f 5c1a e63e 7f81 03be
00000010: 60dd 4b3f 9e74 d03e 422e fc3e 5691 373f
00000020: 068c ff3e 541a f43d 0849 66be 8d28 2a3e
00000030: 3de5 aa3e f051 003f 6298 9e3f ad15 3f3f
00000040: 9e5a 753d 18f5 483f f177 e53e a841 053f
00000050: 0ef5 0d3f 1d01 9dbd 9280 503e 41a3 173f
00000060: e9b4 573d 7fb4 1b3f cbbf 563f 0e92 093f
00000070: 4a36 7b3f 16d6 433e ca15 0a3f a783 aabd
00000080: f728 4c3f 1fe2 0b3f 31d2 603f 3ced 813f
00000090: d3f5 cd3c 21bc 673f 52dd 893e 3fdd a93f
000000a0: f571 123f 5cf2 413f 58a7 aa3e af07 05be
000000b0: 0678 793f 6513 e53a 13e2 893e d07f 563f
000000c0: 083b 1ebe e934 283e adcc b03f 1e5f 473f
000000d0: 90e5 6c3c 1f86 3bbd 7b0a 963e 8a7c cc3e
000000e0: 87b5 ac3d 42da 0f3f 16c7 a5bd 51b8 f03e
000000f0: 1ca4 2f3f 8838 0c3f bd73 bf3e 113a 423f
00000100: f110 c03e ccb6 0e3f bc9e 333f 20d4 e13e
00000110: 8ac3 013f 1f6e 193f d753 49bc 7ed0 7c3f
00000120: a64c 7d3f 6139 843e ea24 813f 0c89 1d3e
00000130: aa93 593f 1810 353e 43af df3e 2fcf ba3e
00000140: 833f 813e 2c19 d73e 0539 5bbe 6f7a b43e
00000150: ef01 3b3f 08d5 12be 6e2e 003f 4235 0b3f
00000160: 2c03 0e3f 889a 533e 2a22 6c3f 9ac0 003f
00000170: affc 313f 835b 2a3e 75b7 883e 6944 c93d
00000180: 7b27 043f 15b8 b0bd cf57 ff3e 7927 063f
00000190: 7484 3f3f 92f3 cd3d 42d7 183f 4156 433e
000001a0: 24a8 f43d 264c 913e 5c9f 2e3f 97c5 8cbd
000001b0: fa52 2c3e 1510 793f 6420 74bd 2509 da3e
000001c0: 9cbc 583e aa77 193f 1115 8f3d 8aec f23e
000001d0: 9e9a 273e b8fe 7d3e 31b7 db3e 1ca4 7e3f
000001e0: dac2 4d3f 9e0f 60be e307 a13e 135b 3c3f
000001f0: ee3a 763f 5571 d83e 4d3a 163f f078 bd3e
-0.17216231 0.69751513 0.44941986 -0.12842368 0.79634666 0.40713972 0.49254042 0.7170614
0.49911517 0.11919084 -0.22488797 0.16617031 0.3337802 0.50125027 1.2390254 0.7464245
0.059900872 0.78498983 0.4481807 0.5205331 0.5545205 -0.07666228 0.20361546 0.5923348
0.052662764 0.6082229 0.838864 0.53738487 0.98129714 0.19124636 0.539395 -0.08325892
0.7975001 0.5464191 0.87820727 1.0150523 0.025141632 0.90521437 0.26926666 1.3270644
0.57205135 0.75760436 0.33330798 -0.12991212 0.97448766 0.0017477093 0.26930293 0.83788776
-0.15452206 0.16426434 1.3812462 0.7787951 0.014459029 -0.045782205 0.2930487 0.39938766
0.08433061 0.5619241 -0.08094613 0.47015622 0.68609786 0.5477376 0.3739299 0.7586985
0.37512925 0.55747676 0.70164084 0.4410715 0.50688994 0.59933656 -0.012288055 0.98755634
0.9894508 0.25825027 1.008939 0.1538431 0.8499094 0.1768192 0.43688402 0.36486194
0.25243768 0.42011392 -0.2140847 0.3524966 0.73049825 -0.14339077 0.50070846 0.5437814
0.5547359 0.20664418 0.9223963 0.50293887 0.6952619 0.16636471 0.26702467 0.09827501
0.5162274 -0.08628861 0.4987168 0.5240398 0.7481148 0.10056223 0.5970346 0.19075872
0.11946133 0.2837841 0.68211913 -0.06873625 0.16828528 0.97290164 -0.059601203 0.42585102
0.21165699 0.5994822 0.0698644 0.4744609 0.16367576 0.24804199 0.429132 0.9946916
0.80375445 -0.21880957 0.3145133 0.7357647 0.9618367 0.42273965 0.5868271 0.3700633

conv.conv.2.weight f4 [128, 128, 2, 2]
00000000: f783 b03f b572 84bf aec5 cabe ff7e 44be
00000010: ac14 063f d310 3abf 9b5c 1dbe 3d7a acbf
00000020: 7f7b 983e 3283 b93e 0110 b33e a8e8 fa3e
00000030: 9f8c 8e3d f03f bf3d b1d0 b03d bb7f c3be
00000040: 088b f3be 0e5a 2b3f d19f 0ebf a626 03bf
00000050: 4da7 27bf 2dd7 78be a941 d5bf b758 adbf
00000060: c765 c6bd 3e8a 41bf 5b9b e4bf 158f 903e
00000070: 77aa 91bf 408e c7bf 58d1 8cbf 9a4b c9be
00000080: 7344 da3e b740 723f bd99 1840 cb02 263f
00000090: ceaa 383f bf76 d5be a3ae 4b3d a109 2bbe
000000a0: abd0 48be c464 75bd ab9c 1ebf 4117 bc3f
000000b0: 8165 05bf 04cb c63e 063f 46bf f2a6 393f
000000c0: 4c07 303f 8d8c 173e 6145 bdbe d1ad 9b3e
000000d0: 9360 75be a5b3 6c3e 17a3 903e fcf5 103f
000000e0: 796b 16bf 3e29 85bf e0ad ba3e 1542 adbf
000000f0: d9ff a0bf dae5 a4bd e19b 82bf 264f 00c0
00000100: da6c ab3d 6c3e b5bf ed8b 3e3d 3c51 a53f
00000110: 8cd3 62be d440 283f 6e5d c33f 5603 eb3e
00000120: 4a14 a8bc f6bd 09bd 6712 7ebf 7999 8cbe
00000130: 00e2 01bf 5896 8abf 5c92 b5bf f0f1 25bf
00000140: 8bf4 8c3e b63d 5c3f f4f5 913f df19 553f
00000150: 2a14 a33d dc1f 1c3f 421c 263f ca12 443f
00000160: 9669 56bf d9d2 f13e a38e be3f 0f94 e6be
00000170: 33c9 80bf 2bb8 8bbf 7d22 843f 08d6 88be
00000180: ff86 1b3e 9b1a 923f cb1e d3be 2d87 56bd
00000190: c19f c2bf 4c59 97bf b8b9 03bf 3236 653e
000001a0: 31cc 303f c3c3 123f 438b 3540 dce1 47bf
000001b0: fece 53be 20a0 4f3f 5579 d43f c8e1 9b3f
000001c0: 04b8 2cbf 4766 3f3e a266 253e 2488 6d3f
000001d0: ca66 d4be 693c d83e 90e6 92bf 8620 e2bf
000001e0: ef1f cabf 0d2e a6bf 7516 75bf 668e 9c3f
000001f0: 00ee 32bf bec1 97bf b7b7 fdbe 4049 59be
00000200: e611 383e f1e8 873e f5f4 cd3f 5c19 32be
00000210: 5b6b 1f3e e1ce c9bd b2ff 71bf 9523 72bd
00000220: 9d99 e6bf 9aa2 17bf 6b54 e53e 71e6 d6be
00000230: a6f2 b1bf e248 093f 854b 87be 85c0 c0bf
00000240: 66b4 27bf d290 10bf 10c5 b63c 969d 2e3f
00000250: 2152 cc3d 6961 00be 0437 43be 3f05 df3e
00000260: e3f0 8e3f 0c67 aa3e 457a c7bf 4680 acbf
00000270: 9255 53bf 563b 3abf e8d4 61be 464e 17bf
00000280: 74ad 8a3e a116 2e3f d4cd 523e 3ec2 42bf
00000290: c868 0abe aa13 5e3f d1d8 4c3f af3c 96bf
000002a0: 64c6 343f 14cc cb3e d37e 41bf 096f d7bf
000002b0: ad1e b2bc 3483 1e3f 600b 7b3f 1ef6 183f
000002c0: fbfd 4c3e 0f03 4bbf 5629 7dbe e7b2 abbf
000002d0: db59 e2be 7606 323e 926c 69bf 31a9 6a3f
000002e0: 96d0 87be 4877 48bf b866 2dc0 c5bc 89bf
000002f0: 00e2 473f f767 eb3e e8b8 a73f 7097 f83e
00000300: b076 51bf fa8e 3e3e f494 a0be bd73 6c3e
00000310: 9531 6d3f 7696 0a3f 42e2 183e 609a 49bf
00000320: b2f2 04bf d521 f1be b4cf cf3d 36a8 15bf
00000330: bedc f1bf a15b 9ebf f22d cd3e 1b58 a4be
00000340: 9f2c 37bf 0409 693e da8e b8bf 6d3d c0be
00000350: 6ce0 e83d b081 d13f c0ff 00be 6642 aa3f
00000360: 1f13 843f 7c66 44bf 1803 5cbe 2be5 71be
00000370: b66f 31c0 1c42 a7bf e147 90be 5c07 843c
00000380: 91e5 92be b3dd cfbe 24fe dbbf c772 d6bf
00000390: 3693 61be 127a 8f3f cb8e 0140 59e5 9e3e
000003a0: 0960 083e e888 8dbe 1c13 00bf 893e 5a3e
000003b0: 3555 4abe 570b d5be 28d5 823d 35e4 443f
000003c0: 1e46 8c3f 9de1 c43d 7db8 9f3e abe7 0b3e
000003d0: 741b 8bbf cc46 843f 04eb a9bf a3d5 95bf
000003e0: 46a6 cebe 6b18 6a3f ae89 25be 16a8 38bf
000003f0: 2b5c b2be 83a8 84be 4d81 6c3e ed4c e43e
1.3790272 -1.0347506 -0.39603943 -0.1918907 0.5237529 -0.7268192 -0.15367357 -1.3474804
0.2978172 0.36232907 0.34973148 0.49005628 0.06960415 0.09338367 0.08633555 -0.38183388
-0.4756701 0.6693429 -0.5571261 -0.5123085 -0.65489656 -0.24300833 -1.6660663 -1.3542699
-0.09687381 -0.75601566 -1.7859911 0.28234163 -1.1380147 -1.5590286 -1.1001387 -0.39315492
0.42630348 0.94629997 2.3843834 0.6484801 0.7213563 -0.4169216 0.049727093 -0.16702892
-0.1961085 -0.05991055 -0.61957806 1.4694597 -0.5210801 0.38826764 -0.77439916 0.72520363
0.68761134 0.1479971 -0.36966994 0.3040605 -0.23962621 0.23115404 0.28249428 0.5662534
-0.5875774 -1.0403211 0.3646078 -1.3535792 -1.2578079 -0.08051653 -1.020382 -2.0048308
0.08370371 -1.4159675 0.046520162 1.2915416 -0.22151011 0.6572392 1.5262887 0.45900983
-0.020517487 -0.033628426 -0.9924683 -0.2746084 -0.50735474 -1.0827131 -1.418529 -0.6482229
0.2753032 0.86031663 1.1403184 0.832426 0.0796283 0.60986114 0.6488687 0.7659117
-0.8375486 0.47231176 1.4887279 -0.45034835 -1.0061401 -1.0915579 1.0323025 -0.26725793
0.15188216 1.1414369 -0.4123443 -0.052375007 -1.5205003 -1.1824126 -0.5145526 0.22383955
0.6906157 0.5732996 2.8366249 -0.7807901 -0.2068443 0.81103706 1.6599528 1.2178278
-0.67468286 0.1869136 0.16152433 0.9278586 -0.41484672 0.4223359 -1.1476612 -1.7666175
-1.5790995 -1.2982804 -0.9573739 1.2230957 -0.6989441 -1.1856 -0.49554226 -0.21219349
0.17975578 0.26544908 1.609038 -0.17392486 0.15568297 -0.09853912 -0.94530785 -0.059115965
-1.8015629 -0.59232485 0.44790968 -0.41972688 -1.3902175 0.53626835 -0.26424804 -1.5058752
-0.6550964 -0.5647098 0.022310764 0.6820921 0.09976602 -0.12537159 -0.19063956 0.4355869
1.1167263 0.33281744 -1.5584189 -1.3476646 -0.82552445 -0.7274679 -0.22053874 -0.5910381
0.2708546 0.6800328 0.2058633 -0.7607764 -0.13516533 0.86748755 0.80018336 -1.1737269
0.7061522 0.39804137 -0.75584143 -1.683076 -0.021743143 0.6191895 0.9806423 0.59750545
0.20018761 -0.7930154 -0.247228 -1.3413972 -0.4420918 0.17385277 -0.9118129 0.91664416
-0.26526326 -0.7830701 -2.7093945 -1.0760733 0.78079224 0.45977756 1.3103304 0.48553038
-0.8182173 0.18609229 -0.31363642 0.23091026 0.9265378 0.54135835 0.1493006 -0.7875118
-0.51932824 -0.47096124 0.10147038 -0.58459795 -1.889549 -1.2371713 0.40074116 -0.3209847
-0.7155246 0.22757345 -1.4418595 -0.37546864 0.1137093 1.6367702 -0.12597561 1.3301513
1.0318335 -0.7671888 -0.21485555 -0.23622577 -2.7724433 -1.306705 -0.2817984 0.01611679
-0.2869077 -0.4059883 -1.7186933 -1.6753777 -0.22028813 1.1209128 2.0243404 0.31034353
0.13317885 -0.27643514 -0.5002916 0.21312918 -0.19759066 -0.41610214 0.063883126 0.76910716
1.0958898 0.09613345 0.3119544 0.13662593 -1.0867753 1.0334105 -1.3274846 -1.1705822
-0.40361232 0.9144351 -0.16165802 -0.7213148 -0.34835944 -0.25909814 0.230962 0.4458994

conv.conv.2.bias f4 [128]
00000000: 1768 c63e 3f02 1e3f bad5 913d 4ebe 423e
00000010: a35d fd3e 41b6 293f c344 b03e 291a 72be
00000020: bea5 5d3e 758e c7bc a0f9 aa3e c4d1 9d3e
00000030: f556 643f 63dc 2b3f 2a02 153f 3448 37bd
00000040: c06f 0a3d 7208 1e3e c05d 2e3e 3f28 023f
00000050: 35b1 783f fffc 0f3e 2132 ad3e 849f a2be
00000060: 5946 813e 749a debd 31ab ca3e 1c26 94bc
00000070: e480 c53e 982e 133f 0511 ca3e 33ff dc3d
00000080: 2e15 c43d f846 803e ed45 d03d 42ef 133f
00000090: 3b5a 133e 18bf c13e ce71 503e 0378 803d
000000a0: 4b29 4a3e 71cf bc3e 9f3b 033e 168f 453f
000000b0: 922d 46bd 02a4 c9bd 8deb b73e 14de d33e
000000c0: b731 9b3d 26d5 583f 56c3 523f 75e8 ca3e
000000d0: 6327 8d3e 83ad ad3e 4f5d b3be a41f 433f
000000e0: 657e 583e a575 d43e 9935 dbbe 51af 0f3e
000000f0: 8fb2 133f 3269 983e e5af 3f3d 5aa9 083f
00000100: fde0 313e 7a9a 0b3f 79cd 8c3e 5028 4d3e
00000110: 80e0 8ebd 6f2b c63e eb83 3f3e dd31 c43e
00000120: b9ea 733d a93e 903e 6567 d03e cffd 80bc
00000130: 6b94 b53f aa37 d53d 2d67 703e aff9 903e
00000140: c31f 203e feb7 1d3f 30e2 3cbc 4de7 b33e
00000150: cc32 fb3d 6683 1c3d 9d9a 1ebe f7ec 1c3f
00000160: 800c 983e 286b e63d 0bf0 9c3e d2cc 063f
00000170: e738 cc3e 5301 9c3e 33f3 cb3e 9285 213f
00000180: fae5 193f 8035 383f d167 a23e 6b6e c13e
00000190: 188f 55be e52e b23d f285 a03e 553a aa3e
000001a0: d88a 20bd 445c d83d 4941 f4bd f20d 113e
000001b0: 032f 1f3f 7ecd 5ebe 7e3f 143f 7ddd b43e
000001c0: 20ba a93e 4ee1 173d ddd3 ab3e 8715 b33e
000001d0: 795e e63c c5fd 5f3e b090 a23e 7b0e 073f
000001e0: d7ee 113e a85f 1f3f d4eb 133f 69ec 37bd
000001f0: 3350 39be 0880 133f b330 9fbd 2494 8abe
0.3875129 0.6172218 0.07120843 0.19017908 0.49485502 0.6629372 0.3442746 -0.23642792
0.21645257 -0.024359921 0.33393574 0.308241 0.89195186 0.6713316 0.5820643 -0.044746593
0.03379798 0.15432909 0.1702795 0.5084266 0.97145396 0.14061354 0.33827308 -0.31762326
0.25248984 -0.10869303 0.39583734 -0.018084578 0.38574898 0.5749297 0.3946611 0.10790863
0.09574352 0.25054145 0.10169587 0.57786953 0.14389889 0.37841105 0.20355913 0.062728904
0.19742315 0.36877015 0.12815712 0.77171457 -0.048383303 -0.09845735 0.35921898 0.4138037
0.07577842 0.8470024 0.8232931 0.39630476 0.27569112 0.3392144 -0.35032126 0.76220155
0.21141966 0.41496006 -0.4281433 0.14031722 0.57694334 0.29767758 0.046798605 0.5338341
0.17370982 0.5453259 0.27500513 0.20034909 -0.06976414 0.38705012 0.18702666 0.38319293
0.05955002 0.28172806 0.40703884 -0.015746025 1.4185919 0.10411008 0.23476858 0.28315493
0.15637116 0.61608875 -0.011528537 0.35137406 0.12265548 0.03821125 -0.15488668 0.6129908
0.29697037 0.11250907 0.30651888 0.5265628 0.39887163 0.3046976 0.39833984 0.6309444
0.6011654 0.71956635 0.3171983 0.37779555 -0.20855367 0.08700351 0.31352192 0.3324763
-0.03919491 0.10564473 -0.11926515 0.14165476 0.6218111 -0.21758077 0.5790938 0.35325232
0.33149815 0.0370801 0.33560076 0.34977362 0.02812122 0.21874149 0.31751013 0.5275647
0.14251266 0.62255335 0.5778172 -0.044903193 -0.18097 0.57617235 -0.077729605 -0.27066147

fc1.weight f4 [256, 512]
00000000: f62f b93e af19 403d 1dca 90bf 8bb8 cbbe
00000010: 2e7d 993e 53e3 af3e 65bd 78bc 4e38 d23e
00000020: e917 b0bd 69f7 c13e 26b6 c2bf d7d3 74bf
00000030: 6fca d5be aecd 0abf c503 44be 1270 f8be
00000040: 65ab 133e d553 003f 1249 35be 6415 da3d
00000050: e1e3 593d a43f 2bbd 7c11 5d3f 60c0 c53e
00000060: bdcc c5bf 4cad 48c0 a3ca e83e 1426 4ebf
00000070: 5474 09bf f302 c63d 305c d1be a0b4 05be
00000080: 4cb9 d1bd 34fc a43e bbc0 c13d 7682 dc3e
00000090: bce1 123f eca1 2cbd df33 d93d b334 3c3f
000000a0: 7cc2 a73e 3e1b 113e 4766 053f c146 cfbd
000000b0: 6031 893e 4a6d 913c 7d32 b0bd bf70 d93c
000000c0: 5635 4d3f a21c dc3e cab6 24bd f754 213e
000000d0: d537 a5bc 4cff ea3d 4d34 a43f 3399 c73e
000000e0: 321b a83e 6b2e d33e 671a c23f b389 3c3f
000000f0: 6382 573e 0ef8 f93e c150 623f eca4 bf3e
00000100: b8a8 cb3e 2145 cc3e 5a72 263f 156e c13e
00000110: b073 75bc d003 d33e 846a ae3f 6650 d73e
00000120: a07c 573f 3808 c13e aa3e 213f 01cf 3d3f
00000130: 0fb9 82be 5285 dbbe 4bee d7bd 2784 5dbf
00000140: e396 113f 9a03 543f 5233 653f 9cd4 073f
00000150: 285e e93e 70a6 4f3e a9ae 243f 4c7a 133e
00000160: 1626 a0be 7705 bd3e 0d02 f2be ac05 e1bd
00000170: 67ff 69be 46d6 8e3f 88c7 b13d d0e5 903f
00000180: 2a0f 69be 65de ea3e 63da 48bf 44d1 38bf
00000190: fc4a b73d 83ca 10bd 2311 903e a5ae 8b3e
000001a0: 85fe d9bc 2fdf 0abe 8179 d83e 2e6c f7be
000001b0: 76a2 6ebe 1323 853e ebed a0be 1144 35bf
000001c0: d138 9abc 00f2 8d3e a511 a6bf 9050 79bf
000001d0: 4878 f7bd 943c b63d 56d6 39bf 09ff 74bf
000001e0: 1a79 bcbe ae0e acbe 0d9d 8d3e 61f8 403f
000001f0: bab9 9cbe 8625 223e 09b6 08bf fa72 4fbf
00000200: 2cea dd3e 5c5a 7d3f 2961 29bf ad5e 953e
00000210: 5f4d a73e 3e40 bb3e 5e5d 843e 4dad 773e
00000220: 6e46 a8be 139c bfbd 71e4 a83f 96f2 bbbe
00000230: aab3 80be e1e1 013f 1f09 413f 6386 0d3d
00000240: 98d1 583e ac50 423c b120 18bc 5a68 1c3f
00000250: 237c 133e 38b3 0d3f 0c9c 893e 1071 143f
00000260: 63e9 223f de7c 763e ce31 ea3d c7bd 103f
00000270: 1a8b c73e 9ad5 d03e 41f7 9cbf 1b64 14be
00000280: 6217 243f 258c 3f3e a19d 3c3d 2d88 bfbd
00000290: 920e 88bd 20b7 ae3e f206 c33e e60b a83e
000002a0: d29a 1e3f 63e2 943d 835f 6d3f aecb aa3e
000002b0: 67d6 2dbd e0a7 ac3e db1f b63e 1e88 593d
000002c0: 99c7 e23e a81e 3a3f 94b2 433f 2f0f 7a3f
000002d0: 5f9e 373f f415 7f3f 0ec9 f93d 2db7 52be
000002e0: 8bfd bc3e 00c9 153f dab5 ce3f f09d 5a3f
000002f0: bb78 0ebe 4106 173e 3200 573d b07a 013f
00000300: 90ea 3b3d c567 d9bd 46fc 0a3f 5d31 083f
00000310: 8fa6 0a3e 2f22 da3e 5708 083f c899 593e
00000320: 7e93 dfbd ea75 85be d806 8e3b d346 d13e
00000330: 4c2d 42c0 2fd8 d2bf a14d 3fc0 8665 1fc0
00000340: 3be3 053f 836e 393f fefd b73f 28b6 b73e
00000350: 44b4 8bbd 620b 253e a449 b4be 2fab 2f3e
00000360: 2f2f 4b3e 19bc 663d cacb f2bf 80e6 23bf
00000370: ed1f 693d 81ab 9e3e 2692 833f 0477 213f
00000380: 4109 ad3d 79a3 11bd 5f02 8d3f f4ff 0cbd
00000390: 007f 033f 304d 3a3f 9ea8 66bf 9ce0 3a3e
000003a0: f758 a13d 58a9 c03e e43e ddbf 1fe5 abbf
000003b0: f219 1f3f a2d6 ccbd 020b b63f 3429 e53e
000003c0: 3dc4 833d ac9b 5abd e9b7 39be dd48 5e3e
000003d0: 6972 b33d 427e 8a3e 3b19 dfbe 9b11 58be
000003e0: f8b7 33bf b734 be3c b030 953e 2265 0dbe
000003f0: 3f3f 70bd 3418 d13d 380d 1c3f a915 82be
0.36169404 0.046899494 -1.131168 -0.39789233 0.29978317 0.34353122 -0.015181874 0.41058582
-0.085983105 0.3788407 -1.5211837 -0.9563574 -0.41756007 -0.5422009 -0.19142063 -0.48523003
0.1442085 0.5012792 -0.17703655 0.10648611 0.053195838 -0.04180874 0.86354804 0.38623333
-1.5453106 -3.1355772 0.454671 -0.8052685 -0.5369313 0.09668531 -0.40890646 -0.13057184
-0.10240421 0.32223666 0.094605885 0.43068284 0.57375693 -0.04214661 0.10605597 0.7351791
0.32765567 0.14170548 0.5210919 -0.10120917 0.26795483 0.017752308 -0.0860338 0.02654302
0.8015951 0.42990595 -0.040213384 0.15755068 -0.020168224 0.11474475 1.2828461 0.3898407
0.32833248 0.41246352 1.5164307 0.7364761 0.21045832 0.48822063 0.8840447 0.37430513
0.3977716 0.3989649 0.65018237 0.37779298 -0.014981195 0.41213846 1.3626256 0.42053527
0.8417454 0.37701583 0.6298624 0.7414399 -0.25531814 -0.42875153 -0.10543498 -0.86529773
0.5687086 0.82817996 0.89531434 0.5305879 0.45579648 0.20278335 0.6432901 0.14402121
-0.31279057 0.36918232 -0.4726719 -0.1098741 -0.22851335 1.1159141 0.08680636 1.1320133
-0.22759691 0.458728 -0.7845823 -0.72194314 0.08949849 -0.03534938 0.28138074 0.2728168
-0.026610622 -0.135617 0.422802 -0.48324722 -0.23304161 0.26003322 -0.31431517 -0.70806986
-0.01882592 0.27723694 -1.2974135 -0.97388554 -0.12083489 0.08898273 -0.72592676 -0.9570165
-0.36811143 -0.3360495 0.27658883 0.75378996 -0.30610448 0.15834627 -0.53402764 -0.81034815
0.4334272 0.98966 -0.6616388 0.29173794 0.32676217 0.3657245 0.25852484 0.24187203
-0.32866234 -0.09355941 1.3194715 -0.36708516 -0.25137073 0.5073529 0.7540454 0.03455199
0.21173704 0.011860054 -0.009285138 0.6109673 0.14402823 0.5535159 0.26876867 0.5798502
0.6363737 0.2407107 0.11435281 0.5653958 0.38973314 0.40787965 -1.2262956 -0.14491312
0.6409818 0.18705805 0.046048764 -0.09352145 -0.06643404 0.34124088 0.38091236 0.32821578
0.6195499 0.07269742 0.92723864 0.3335852 -0.042440798 0.33721828 0.3557118 0.053108327
0.44292906 0.7270303 0.76444364 0.9767942 0.7172603 0.9964287 0.12196551 -0.20577689
0.36912188 0.58509827 1.6149247 0.85397243 -0.13913243 0.1474848 0.05249042 0.5057783
0.045877993 -0.106154956 0.5429119 0.5320032 0.135401 0.42604205 0.53137726 0.21250069
-0.10916804 -0.26066524 0.004334312 0.40874347 -3.0340147 -1.6472224 -2.989113 -2.4905715
0.5229985 0.7243425 1.4374387 0.35881162 -0.06821492 0.16117623 -0.35212433 0.17155145
0.19842218 0.056331728 -1.8968441 -0.6402359 0.056915212 0.30990222 1.0278976 0.6307223
0.08449031 -0.03555629 1.1016349 -0.034423783 0.5136566 0.7277403 -0.9010104 0.18249744
0.07878297 0.376292 -1.7284818 -1.3429297 0.62148964 -0.100018755 1.4222109 0.44757998
0.06433914 -0.053371117 -0.18136562 0.21707483 0.087620564 0.27049452 -0.43573937 -0.21100466
-0.7020259 0.023218496 0.29138708 -0.1380811 -0.058654066 0.102096945 0.6095767 -0.2540715

fc1.bias f4 [256]
00000000: 5ecc b73f 6a12 b73d 40fa 1e3f da4f f339
00000010: 89af 63bd 43ef da3d 2b54 6abf 9d8e be3e
00000020: ca35 97bd 38a1 5abc 8d2a 043e a38a a33f
00000030: 747f 7dbe 6945 29bc 9f65 9cbc 6fb1 ac3f
00000040: 1a8b 933e ac59 323f 01d1 ecbc a5b6 bb3f
00000050: 0875 48bd fd62 223f d183 ee3d fe25 953f
00000060: 6b07 f1bc 2a2b 0740 cd2d 553f 19c9 15bd
00000070: 2c6b 50bd db8a 5b3e 8c33 213d bbd9 8d3e
00000080: 56a2 a13f 5d71 afbe 16a6 83bf 107a 743f
00000090: 8897 213f 9979 38bd 24a3 263f bc5c 493f
000000a0: 4248 f33e 46f7 003d ffe3 733e e1db a43f
000000b0: e661 4f3f f2c1 133f f1a4 c73c 7d74 543f
000000c0: 1bc7 ba3e 0b9f d7be 1e54 d13f 34fd ad3f
000000d0: b4df 0e3d 3fd7 943e 528e be3f 98a7 163e
000000e0: 461c ac3f b375 f13f 6941 b73e ee8b 013f
000000f0: d71a af3f 2c3f 9fbd 8fa9 a13f 2be0 e03e
00000100: 90eb 0abd 76ef 1dbd 891c cf3c 7b5c e63e
00000110: 945e 1ebd 2a49 e0bc 4cbe 5b3e 5da8 e73f
00000120: 7896 e23e 5216 0f3c d47f 8b3c ca8c 0abf
00000130: 821a 0d3f 607e 053c 526c 31bc d354 353d
00000140: b3b4 3ebd 0f99 ee3c 56a8 bf3e 470a 433d
00000150: b540 623f 11f5 28bd 4c64 e83b 0a52 a93f
00000160: 1886 50bd 7bc6 6b3e 0b40 103e 6843 cb3e
00000170: 996e d13c 8c15 0a3f 10c7 6a3f a7e9 763f
00000180: 2401 b13f 9aeb 3d3f d991 c03e 06f3 b23f
00000190: 4fc8 973e 62e5 243c b05b f13e eb20 debf
000001a0: 6141 b63f 2495 9b3e 9396 933e 9255 7f3f
000001b0: 141f 053f 8400 5f3e 04ce ab3b 4069 803f
000001c0: 373b 4cbd 6867 303f 52c8 d43e 9209 b13f
000001d0: 45bc 3d3d 4e71 2c3f 8065 923e 39f5 2d3f
000001e0: e2b5 e83c 2869 213e 9457 023f 1373 53bd
000001f0: 686b 533e 3410 af3c 916a f33f 92f9 9bbb
00000200: 69f0 e23e 5b13 023f 2d0a 5e3e 6c85 213e
00000210: d6c7 823d 36da 24be 373a d53f dfda 113f
00000220: 8b55 d5ba e47f 1fbc 952c 243f bc4f 913f
00000230: 27a2 2dbd de3a 9e3c 89fd 1f3f 14dd 8ebe
00000240: 97b6 6fbe 064f 8d3f 8015 743f d8d0 ac3e
00000250: 2dec 17bf 906d cd3f c524 8c3f b005 813e
00000260: 8424 3dbd 94c4 8ebc 17b8 09bc 5e5d 113f
00000270: b312 a1be a484 883e 0519 613d 201c 49bd
00000280: 29f2 3d3b 0fe5 e03c edd9 09bf 1c90 0f3e
00000290: 9c2e eabd 597e 843b 9212 29bd 0748 063c
000002a0: 2095 363f d0e4 c53f 4ce7 52bf 2c9f 2dbd
000002b0: f516 223c 7664 57bd 59fb ff3f b4e0 98bb
000002c0: ce2a a03f 4f3b b93f 56cb 8d3e 5b84 393f
000002d0: 5701 47bd 3c15 c83f f05f 0b3d 1512 0a3d
000002e0: 79b6 55bc ae48 d43e 2e84 68ba fc38 5f3e
000002f0: 61f0 ce3e 3725 683d a09e 043f 9390 a4bb
00000300: 42a0 bc3f 7762 9a3d 6fdd 0d3f 51ac 21bd
00000310: 82d0 b43e b64b 233c daa5 7dbf 97be d13f
00000320: 1257 7dbf 267b d73e c56a b3bc 3a5d 24bd
00000330: abf7 1d3e 035b b83f 39a0 b33d f047 703d
00000340: 6210 26bd 3477 0a3e 355a 83bc 43d4 ac3f
00000350: 18e0 7c3e bc05 0f3f 0110 d53e ab3c ab3f
00000360: c2e6 57bc c2fa a63f dbae 343e 3084 ab3f
00000370: fa45 843f 4387 b13e 6812 f1be 2882 ed3c
00000380: 34a9 e03e 0f3e 6b3f ccab 573c 8c3e 80bd
00000390: eeba 8e3f 9368 c2bc ecd7 f93e a52e 1bbf
000003a0: 9fbc 92be b165 55bd f789 1a3f a9a8 8e3f
000003b0: 9ccc 593e 455c 9a3d ed2b 5bbe 7b8e 173f
000003c0: 3c6c aa3c 84da 95bd efa7 8c3f f156 b43f
000003d0: 9e14 6a3f 73d7 d6bd 6a88 0d3b 5445 bc3f
000003e0: cc70 323a 3fab d3bc 1fba d93b ae8e 183d
000003f0: 1a97 f7be 7f3b bf3e 909e 78bf aa11 7f3e
1.4359243 0.08939059 0.621006 0.00046408066 -0.055587325 0.10690167 -0.9153468 0.3721818
-0.07383306 -0.013344102 0.12906857 1.2776684 -0.24755651 -0.01033149 -0.019091425 1.3491648
0.28817064 0.6966808 -0.028908255 1.4665114 -0.048939735 0.63432294 0.11646236 1.1652219
-0.029422482 2.1120095 0.8327301 -0.036568735 -0.050883457 0.21439688 0.0393558 0.27705178
1.2627666 -0.34266177 -1.028506 0.9549875 0.63121843 -0.04503784 0.6509268 0.78657126
0.47516066 0.03148582 0.23817442 1.2879602 0.81008756 0.5771781 0.024370642 0.82990247
0.3648003 -0.42113528 1.6353796 1.3592896 0.03488131 0.2907047 1.4887183 0.1471237
1.3446128 1.8864044 0.3579209 0.5060414 1.3680066 -0.07775721 1.262987 0.43921027
-0.033916056 -0.038558446 0.025282161 0.44992432 -0.038664415 -0.027378637 0.21459311 1.8098255
0.44255424 0.008733349 0.017028727 -0.5412108 0.5511857 0.008147806 -0.010829048 0.044270348
-0.046559047 0.029125718 0.37433118 0.047617223 0.88379985 -0.04124934 0.0070920344 1.3228161
-0.05090913 0.23024933 0.1408693 0.39699864 0.025565432 0.5393913 0.91709995 0.96450275
1.3828473 0.74187624 0.37611273 1.3980415 0.2964501 0.010064455 0.47140265 -1.7353796
1.4238702 0.30387223 0.28825817 0.99739945 0.52000546 0.2177754 0.005243065 1.003212
-0.04986116 0.68907785 0.41559082 1.3831046 0.046322126 0.6736039 0.28593063 0.67952305
0.028407041 0.1576277 0.50914884 -0.051623415 0.20646441 0.021370031 1.9016896 -0.0047599757
0.44324043 0.50810784 0.21683569 0.15773553 0.06385772 -0.16098866 1.6658391 0.56974596
-0.0016276104 -0.009735081 0.64130527 1.1352458 -0.04239097 0.01931518 0.6249624 -0.27903044
-0.23409496 1.1039741 0.95345306 0.33753085 -0.5934475 1.6049061 1.0948721 0.25199652
-0.046177402 -0.01742772 -0.008405707 0.5678309 -0.3145958 0.26663697 0.0549555 -0.049099088
0.002898345 0.027452974 -0.53848153 0.14019817 -0.11434671 0.004043382 -0.041277476 0.008195884
0.71321297 1.5460453 -0.8238418 -0.042388126 0.009893169 -0.05258604 1.999858 -0.0046654586
1.2513063 1.4471225 0.27694196 0.72467583 -0.048585262 1.563148 0.03402704 0.03370865
-0.013043993 0.414617 -0.0008869794 0.21799082 0.4041777 0.056676116 0.5180454 -0.0050221174
1.4736407 0.07538312 0.55416006 -0.039470974 0.3531533 0.009966781 -0.99081194 1.6386288
-0.98960984 0.42086142 -0.021901498 -0.04012797 0.15426509 1.4402775 0.087707944 0.058662355
-0.040542968 0.13522035 -0.016034225 1.3502277 0.2469486 0.55868125 0.41613773 1.3377889
-0.013177576 1.3045275 0.17644827 1.3399715 1.0333855 0.3467351 -0.47084355 0.028992727
0.43879092 0.9189157 0.013163518 -0.0626193 1.1150796 -0.023731505 0.48797548 -0.6061805
-0.2865953 -0.052098934 0.6036677 1.1145221 0.21269459 0.0753713 -0.21403475 0.5920178
0.020803563 -0.07317069 1.0988749 1.4089032 0.9143771 -0.104903124 0.0021596202 1.4708657
0.0006806969 -0.025838492 0.006644502 0.037245445 -0.4835747 0.3735008 -0.9711695 0.24909082

fc2.weight f4 [4, 256]
00000000: 35cb 283f bea7 9040 e351 08bf 2c1c 7a3d
00000010: 225a 0dbd 1f70 6540 6e6e 8c41 7f4b ae3d
00000020: 3faf b73f 3781 6b3d 3b8c 2640 8e62 533f
00000030: 1815 3141 2396 853d 7f6d 9b40 fb24 423f
00000040: 0b1c 1e40 ae73 34c1 d0f1 f3bb a2f5 2c3f
00000050: c1ae 1abd 506c 803f 10e5 a640 d431 573f
00000060: 2607 273d 5923 04c1 c318 bb3f c6a2 0741
00000070: 4207 09bd 57de 5640 1704 64bd bf01 73be
00000080: 714f 4a3f 3be4 6441 36da 6341 3599 1fc0
00000090: a603 82bf 68db 1ebd 3093 643f e8d1 bfc1
000000a0: f029 723f 050e bd3b 6df1 4f40 8e05 473f
000000b0: 27d0 943e 2ecb a53f 4c53 f140 b8ee 983f
000000c0: 7482 3240 4558 1341 111a 1a3f 8d92 373f
000000d0: cdaf 9340 a11f 4c40 d206 ed3e 4977 b140
000000e0: ca61 393f ce01 a83e f08b 1c40 4ec8 96be
000000f0: 1313 363f c0ae a540 40ca 453f 1082 d33f
00000100: 2aae b440 00a0 893c 858f 26bd 95ec 46c0
00000110: 437d 2cbd 31c9 7a3c 2112 543f 5e6e c9c0
00000120: 016f afbe fd3f f940 04b6 523c 9d9c 3140
00000130: 6f42 0f40 81d9 d93c 70e4 6f40 b43c 5f40
00000140: 86f4 5d3d fed0 dc3b 3efd a33f 943a 1941
00000150: 6bcc 3740 13ff 2abd cbe8 f8bc 5d7c 463f
00000160: e38e 32bd d90f 8b40 9d31 9e40 3cd6 0740
00000170: 6761 c2bc b925 a83f cfcc 6a3f e2ff 143f
00000180: b03a 403f 3674 983f bace 0f40 bbbe 0d3f
00000190: 6e81 0dc0 8096 10bd 0d1f 9b40 8c43 023f
000001a0: 75c2 3d3f bc6c 2b40 822c 5040 32e5 82bf
000001b0: ca13 a8c0 bb85 e840 2438 b540 b051 9bbf
000001c0: bde1 103d b0e7 42bf 1403 aac1 ab8e 2e3f
000001d0: 23b5 b240 8301 b83f 2ae5 ffc0 ebfe a53d
000001e0: 0da8 f740 89ed 1141 8814 143f 4303 56bd
000001f0: 3128 dc40 72ab 0d3d c31c a53e 8ecb 2c3d
00000200: d575 52c1 1c3a 18bf 13a5 e43f ae7e a240
00000210: e9a2 fd40 3c90 0841 dfe0 d83e d310 bdc0
00000220: 6ae1 663d 3061 b1bc 926a 7fbf 6cfe 6c3f
00000230: 80cb 283c 93d5 33bb 07d3 0840 2a32 c13f
00000240: 9304 b140 e61c 97be 881c 513e 6e54 1240
00000250: 9129 4d41 3f26 99bf 063e 05bf c513 9140
00000260: bea0 b8bc bb0b 4e40 75fe 4cbd a6d1 c83f
00000270: 87be a740 7cfa 3140 b25e 1841 0a90 b7bc
00000280: e23e 85bb 6e76 d53c 6b64 3240 4883 1e41
00000290: b8d2 0241 8a0f b7bd 3142 043d 7f6e 443d
000002a0: 5cfb b93f eec4 09c0 9f37 1041 4901 65bd
000002b0: c59c b5bb 7f9d 55bc 6c17 a23d b380 07bc
000002c0: 5003 4e3f ed8f 413f c1a2 e3c0 dbaa 6bc0
000002d0: 6cdc 29bd c90c 153f 03ab 45bb 5ced 1441
000002e0: 2528 d140 811c 2040 a38e 94bc 23c4 8540
000002f0: cbfb 4b40 7bef eb40 3fc4 8a3f a9b0 cc3c
00000300: d5a3 2b3f 38ec 9440 3598 053f 5008 2bbd
00000310: d9ef 2740 ab07 d6bc 8eab f540 03dc 113f
00000320: dab6 7c41 4206 2940 fcbd 5e3c 85d7 fd3b
00000330: af4d 0241 5bbe 083f 3119 f540 fe3b e4c0
00000340: 80bc b13b 236a 02c1 ed3e 843c ecf8 febc
00000350: 2b49 9540 f1c1 1e3f 42b0 c8c0 3802 4b3e
00000360: edf8 803d fdf0 503f 9aa0 dd40 2fd6 403f
00000370: 22ae 5f3f 57b4 1640 cecc 6440 d88d 58bc
00000380: c004 8c3f 1837 4cc0 d0c5 69bb d874 8640
00000390: c23d 6d3f a985 3dbd 15ac 3d40 73dc 1a41
000003a0: 7425 6341 c223 713d 1ef1 113f 1ef2 613f
000003b0: d041 9140 314c 2241 9fa3 9640 7a2b c53f
000003c0: aac8 d2bb 4ae7 1441 8b5b c2bf 6f94 333f
000003d0: 634a 4cc0 2d2c e240 f200 0641 3f4f febf
000003e0: 4ca6 7e3c c3de 0a41 7915 363d 27aa 053d
000003f0: 0a13 4540 143a 3a3f c62b 3f40 00d4 7b40
0.6593507 4.5204763 -0.5324995 0.061062023 -0.034509785 3.5849683 17.55392 0.085104935
1.4350356 0.057496276 2.602309 0.8257226 11.06765 0.06522777 4.857116 0.7583768
2.4704616 -11.278242 -0.007444598 0.67562306 -0.037764315 1.0033054 5.2154617 0.84060407
0.0407783 -8.25863 1.4616932 8.47724 -0.033454187 3.3573205 -0.055667963 -0.23731135
0.7902747 14.30572 14.240774 -2.493726 -1.0157363 -0.03878346 0.8928709 -23.977493
0.9459524 0.0057694935 3.2491105 0.7774285 0.29065058 1.295263 7.541418 1.1947851
2.7892122 9.20905 0.60196024 0.71707994 4.61521 3.1894305 0.46294266 5.545811
0.7241484 0.32813877 2.446041 -0.29449695 0.71122855 5.177582 0.77261734 1.6524067
5.6462603 0.016799927 -0.040664215 -3.1081898 -0.042111646 0.015306757 0.8284016 -6.2947226
-0.34264377 7.789061 0.012860779 2.775184 2.2384298 0.026592972 3.7483177 3.48808
0.054188274 0.006738781 1.2811658 9.576801 2.8718517 -0.041747164 -0.030384442 0.77533513
-0.0435933 4.3456845 4.9435563 2.1224508 -0.023728086 1.3136512 0.91718763 0.58202946
0.7508955 1.1910465 2.2469926 0.55369157 -2.2110248 -0.035299778 4.8475404 0.5088432
0.7412484 2.6785116 3.2527165 -1.0226195 -5.2524157 7.2663245 5.663103 -1.2134304
0.03537153 -0.7613478 -21.251503 0.68186444 5.5846114 1.4375461 -7.996724 0.08105262
7.739264 9.120492 0.5784383 -0.052249204 6.879906 0.03458733 0.32248506 0.042186312
-13.153768 -0.5946367 1.7862877 5.077964 7.9261365 8.535213 0.42359063 -5.9083037
0.056367315 -0.021652788 -0.9977199 0.92575717 0.010302424 -0.0027440533 2.13788 1.5093434
5.5318084 -0.29514235 0.2042104 2.2864032 12.822648 -1.1964797 -0.52047765 4.5336633
-0.022537585 3.219466 -0.050047357 1.568898 5.2420077 2.7809134 9.523119 -0.02240755
-0.004066334 0.026057448 2.787379 9.907051 8.176445 -0.08938511 0.032289688 0.04795694
1.4529834 -2.1526446 9.013579 -0.05590943 -0.00554237 -0.013038038 0.079146236 -0.00827043
0.80473804 0.7561024 -7.1136174 -3.6823032 -0.041469976 0.58222634 -0.0030161745 9.307949
6.5361505 2.5017397 -0.01813442 4.1801925 3.1872432 7.3729835 1.084114 0.024986582
0.6704686 4.6538353 0.52185374 -0.041755974 2.6240141 -0.026126703 7.6771917 0.56976336
15.7946415 2.641007 0.0135951005 0.007746639 8.143966 0.5341546 7.659325 -7.1323233
0.0054240823 -8.150912 0.016143287 -0.031124555 4.6651816 0.6201468 -6.271516 0.19825065
0.06297479 0.8161772 6.9258547 0.7532682 0.8737508 2.354757 3.5750003 -0.013217412
1.093895 -3.1908627 -0.0035670884 4.201763 0.9267236 -0.046270046 2.963628 9.678821
14.196644 0.058871992 0.5700854 0.88260067 4.5392838 10.143601 4.7074733 1.5403893
-0.0064326124 9.306467 -1.5184187 0.70148367 -3.1920402 7.0678926 8.375231 -1.9867934
0.015542578 8.679385 0.04445407 0.032632973 3.079287 0.7274487 2.9870467 3.9348145

fc2.bias f4 [4]
00000000: 2c34 2cbf 0089 d03f 5344 0540 0272 d93e
-0.6726711 1.6291809 2.0822952 0.42469794
